Models/Subcellular Localization/params/CNN_params.npz (npz, 207162 bytes, 10 tensors)

arr_0 f4 [10, 20, 3]
000000 af 10 c0 3e f3 f9 40 3e 64 2b a6 3e 02 ee ab 3d
       0.3751273 0.18845348 0.3245498 0.08395006
000010 10 cb b2 3e 66 56 bd 3e 86 a1 af bb 63 ee 88 3e
       0.3492055 0.3697998 -0.0053598313 0.26744375
000020 57 fb fe bb 76 f8 b3 bc 28 b0 c7 be 0c ee c4 3c
       -0.007781427 -0.021969061 -0.39001584 0.02403929
000030 2d b6 04 3f b7 bb 9c be c8 ae 81 be b0 fb 62 3e
       0.5184048 -0.30611965 -0.2532866 0.22166324
000040 ed 92 4f 3e e9 4b 23 3d c1 5d dd be 68 c4 6a be
       0.20270891 0.039867315 -0.4323559 -0.22926486
000050 68 2a 8d be 70 55 72 be 6b 0d 0c be a7 4b e8 3d
       -0.27571416 -0.23665404 -0.13676994 0.113425545
000060 49 f3 3e bd ea f8 34 3e 73 5c 21 be ef fa e9 3d
       -0.046618734 0.17673078 -0.15757923 0.11424815
000070 6b f0 db 3c 45 dd 64 be b3 7a 57 bc 8c 9e 53 3d
       0.026848039 -0.22350033 -0.013151812 0.051664874
000080 a6 57 82 be a6 c3 73 be d4 85 9c be e2 53 f5 3d
       -0.25457495 -0.23805103 -0.30570853 0.1197889
000090 f5 9e 90 3c fd 32 45 3d b6 66 20 be ed f3 36 3d
       0.017653922 0.04814433 -0.15664181 0.04466622
0000a0 49 6b 27 be 12 b9 84 be 30 92 53 be f4 cc 36 b9
       -0.1634952 -0.25922447 -0.20661235 -0.00017433224
0000b0 33 05 f1 bc f1 a3 c1 3d 62 3d ba 3e 0f f9 d4 3d
       -0.029421424 0.094550975 0.36374956 0.10399067
0000c0 40 82 04 3e 5f dc fd 3e a2 6c 66 3e 38 82 1b be
       0.12940311 0.49582192 0.22502378 -0.15186393
0000d0 d9 73 1e be 38 43 ae 3e 93 4e 0e 3e 9f a0 d5 bc
       -0.1547388 0.3403566 0.13897161 -0.026077567
0000e0 38 15 7b 3d c1 4f b6 3d 3e 66 1a 3e 51 45 78 bd
       0.061299533 0.089019306 0.15078065 -0.06061298
0000f0 72 73 8d bd 5c d2 c2 3d 81 98 ed 3d 01 1a 98 3d
       -0.06906785 0.09512779 0.116013534 0.07426835
000100 70 a3 00 3e b8 50 89 3e dd 38 d4 be cf fa 87 bc
       0.12562346 0.26819396 -0.41449633 -0.016599087
000110 d1 4a 24 3e 3a b4 e5 be cb 6a 31 be 3b 37 91 be
       0.16044165 -0.44864064 -0.17325895 -0.2836245
000120 95 94 a3 be 56 1d 06 3f 56 18 b6 bd 17 f3 91 3c
       -0.31949297 0.52388513 -0.088913605 0.01781611
000130 dc d6 24 3c fd 4f 01 be 0b 13 82 be 0d 9c 88 be
       0.010060992 -0.1262817 -0.25405154 -0.26681557
000140 1d 33 80 bd 94 0a 9f bd 36 51 4b 3b 9e 26 f7 bd
       -0.06259749 -0.077656895 0.0031023747 -0.120679125
000150 11 d3 21 bd 7a 90 94 3e f5 67 14 3e d4 05 10 3e
       -0.03950793 0.29016477 0.14492781 0.14064723
000160 85 55 ee 3d 27 51 9b 3e 36 b9 6e 3e 42 1c a7 3e
       0.11637405 0.30335352 0.2331284 0.32638747
000170 44 53 a5 3d 72 be 85 be e9 9c 8b 3e d3 cb 4a be
       0.08072522 -0.2612186 0.2726815 -0.19804315
000180 39 db 30 3d e4 e2 78 3a a1 a4 ca 3e 2f 6d 08 3e
       0.043177817 0.00094942586 0.39578727 0.133229
000190 de 81 a2 3e 55 9b 57 3e b3 62 1c be 49 90 9f be
       0.31739706 0.21055348 -0.15272026 -0.31164768
0001a0 f8 ac 94 bd 2e 11 4d 3d c4 0f 60 be c8 51 8d 3d
       -0.07259554 0.050065212 -0.21881014 0.06900364
0001b0 d6 e3 2e bd c1 80 a9 be af c2 a4 3d 85 a5 11 bd
       -0.04269775 -0.33106044 0.080449454 -0.035558242
0001c0 38 c7 9e 3e da ee b4 be db e1 5f bc 41 38 17 be
       0.31011367 -0.3533848 -0.013664688 -0.14767553
0001d0 ab 6d 46 bd 12 99 8b 3e c5 42 81 3e fb c8 2c 3d
       -0.04844443 0.2726522 0.25246254 0.042183857
0001e0 b1 42 9a 3e 5f be d2 3e 8d d6 68 3e 93 90 0a be
       0.30129007 0.41160867 0.22738095 -0.13531713
0001f0 ba 14 ca bd 18 aa e3 bd d7 fa 2b be 23 e8 f5 bd
       -0.098672345 -0.11116427 -0.16794907 -0.12007167
000200 c3 ee d8 bc 2e ec b7 3e 94 74 4a 3e a2 8d 92 3e
       -0.026481038 0.35922378 0.19771034 0.28623682
000210 72 af 04 be 8d 2c ee bd 74 f2 0a be 0a 2b ba be
       -0.12957552 -0.11629591 -0.13569051 -0.3636096
000220 5e b9 f5 bd c7 15 67 3e db 5b 25 be cc 13 7b bc
       -0.119982466 0.22566901 -0.16148321 -0.015324544
000230 40 3d 59 be 5d fb 25 bd d5 97 f6 3c 75 6f b8 bd
       -0.21214771 -0.04052292 0.030101696 -0.09005634
000240 95 90 9f 3e 72 fc 14 be b3 e5 81 bd 44 b7 16 3e
       0.31164995 -0.14549425 -0.0634264 0.14718348
000250 49 ec b3 3e 20 13 39 bc 80 d6 ee 3c e1 b3 89 be
       0.3514121 -0.011296064 0.029155016 -0.2689505
000260 6c cb 47 3d 16 70 af 3e e3 b1 20 be 72 fc 66 3e
       0.048777983 0.34265202 -0.15692858 0.22557238
000270 e3 a9 22 3e 49 97 54 3e c0 59 f6 3c 3a 27 45 be
       0.15885119 0.20760836 0.030072093 -0.19253245
000280 c6 79 b7 3a 1b 27 34 3e d3 e0 85 be b6 c8 16 3e
       0.0013998083 0.17593043 -0.2614809 0.14725003
000290 e6 96 7b be 3d 76 fa 3d 82 e2 3f 3e 79 0a 02 bc
       -0.24569282 0.122295834 0.1873875 -0.007937067
0002a0 22 f4 2a 3e b3 b8 e4 bd 6c 19 26 3e 7d e2 be bd
       0.16694692 -0.11168041 0.16220635 -0.09320543
0002b0 7f d3 0e be 37 6e 60 bd 05 23 79 3c 06 9d b3 3d
       -0.13947867 -0.05479261 0.015206103 0.08770184
0002c0 dd 5c 8d 3d 92 0e 56 3c e8 56 ae 3e bc ec 85 3c
       0.06902478 0.013064997 0.3405068 0.016348235
0002d0 24 99 77 3b 10 84 ac be eb 27 9c 3e c5 2f 63 be
       0.0037780488 -0.33694506 0.30499205 -0.22186191
0002e0 23 49 45 be 4d 0b 2e 3e f8 e9 93 bd ef 80 ae bd
       -0.1926618 0.16996498 -0.072223604 -0.08520686
0002f0 bf a6 25 be 7e f2 09 be ae 0b 85 bd f2 3a 93 3e
       -0.1617689 -0.1347141 -0.06496368 0.2875591
000300 c0 d1 62 3e f0 a7 e2 3e 81 0f 25 be ec ce db bd
       0.22150326 0.4426875 -0.16119196 -0.107328266
000310 5a 47 3e be c2 ed 9c be ef e0 ff 3e e6 94 31 3e
       -0.18581906 -0.30650145 0.49976298 0.17341956
000320 8c 4f b9 3e 2b a8 a4 be 1c 80 6a be 6f 91 ed bc
       0.36193502 -0.32159552 -0.22900432 -0.029000012
000330 40 00 75 3d e1 2b 4c 3e 24 c0 1f bc 68 dc 28 bd
       0.05981469 0.19938613 -0.0097504 -0.04122582
000340 89 9f 8a bc 1d e7 3d 3e a9 0e 60 bd f0 50 2a be
       -0.016921775 0.18545194 -0.05470148 -0.16632438
000350 08 e3 34 be 4c c4 33 3d 73 04 33 bd d1 40 6c be
       -0.1766473 0.043888375 -0.043705415 -0.230716
000360 20 4d cf bc f7 7e 91 be 20 be 74 be db 07 0a 3e
       -0.02530533 -0.2841718 -0.23900652 0.13479559
000370 d1 a4 8b bd 7c 39 a0 3d 16 46 d2 3d e9 8e 98 be
       -0.068185456 0.07823464 0.10267274 -0.29796532
000380 d9 94 db be 41 38 26 3e ac 34 84 3d 9f d3 81 be
       -0.42887 0.16232397 0.06455359 -0.25356767
000390 34 5c dd 3d d9 7d d3 be 86 b9 75 bb 99 2d 92 3d
       0.10808602 -0.41306952 -0.0037494614 0.07137603
0003a0 c2 08 11 be d4 7a 05 3e 76 d8 6b be 57 97 43 be
       -0.14163497 0.13035136 -0.23031792 -0.191007
0003b0 40 42 82 3c 61 cc 98 3e 06 6a 21 3e 8d 1f ca 3d
       0.015900731 0.2984343 0.15763101 0.09869299
0003c0 ef ae 6a bd 1b bb 18 bd 4e 2b fd 3c 31 43 39 3e
       -0.057295736 -0.037287813 0.030904438 0.18092038
0003d0 e1 de 7f 3e b9 81 75 3d 3d ab 95 3c 15 2d 1c be
       0.24987365 0.059938166 0.01827013 -0.15251572
0003e0 b5 37 26 3e cb ce 6a be c8 c5 71 3e 43 2c 2b 3d
       0.16232188 -0.22930448 0.23610604 0.04179026
0003f0 65 89 75 bd 5d a4 d5 3d 3c 28 81 3e 40 a1 a0 ba
       -0.059945483 0.104317404 0.2522601 -0.0012255087

arr_1 f4 [10]
000000 2a 28 34 bb d6 7a 06 ba a8 e0 4b bb d6 ad 8a 3d
       -0.002748976 -0.00051299983 -0.0031109247 0.06771438
000010 bd 87 8b 3c 13 58 09 3d a7 12 40 bb cb 33 b7 3c
       0.017032498 0.03353126 -0.0029307993 0.022363564
000020 6b b2 c6 bc 2b 8f 2c 3d
       -0.024254998 0.042128723

arr_2 f4 [10, 20, 5]
000000 13 26 bc bb e4 c6 75 bd 48 53 b4 3d 65 66 47 3d
       -0.0057418435 -0.06000413 0.08804947 0.048681635
000010 06 cc c5 3c f8 3e 6f 3e 09 81 95 3e 3b 8d 93 bd
       0.024145138 0.23363864 0.2920001 -0.07204672
000020 d6 b1 51 bc 5b 05 d4 3e 47 5a a2 be 62 51 3d 3e
       -0.012798747 0.41410336 -0.317095 0.18488076
000030 4b 7d 20 3d f5 66 43 3e 49 56 5a 3e 78 ec 81 bd
       0.03918199 0.19082244 0.21321978 -0.06343931
000040 28 00 bb bd 66 e3 78 be fa 12 88 bd e7 f9 9d be
       -0.09130889 -0.24305496 -0.066442445 -0.30854723
000050 af 28 12 3f 1e e5 94 3d 3b 00 f4 ba f7 88 b9 bc
       0.5709333 0.07270263 -0.0018615791 -0.022648318
000060 05 a3 47 be 88 ff a0 3e 7d 17 4f 3e 32 6d 16 3e
       -0.19495781 0.31444955 0.20223804 0.14690092
000070 02 c5 17 3e 22 45 85 3e d5 bc 81 3d 42 0b 86 3c
       0.14821246 0.26029307 0.06334845 0.01636279
000080 aa 72 93 bd 84 34 b4 bd 88 ad 2a 3c 45 02 9e bd
       -0.07199605 -0.08799079 0.01041735 -0.07715277
000090 25 cb ec bd 61 f7 61 3e 9f 77 3d 3e 2f f7 46 be
       -0.11562184 0.22067024 0.18502663 -0.1943023
0000a0 03 5c c9 bd b9 85 aa 3d 75 49 ed 3d 50 99 1a 3d
       -0.09832003 0.08326287 0.115862764 0.037743866
0000b0 58 a2 71 3d 43 9e c1 be 9a d3 c9 3d 78 50 2e be
       0.058992714 -0.37816057 0.09854813 -0.17022884
0000c0 dc 33 ae be 60 22 52 be 56 47 6d 3e 1d e0 cf 3d
       -0.3402394 -0.20520926 0.23171744 0.10150168
0000d0 b3 77 64 3d c4 b0 22 3d 37 96 1a bd f1 34 50 3c
       0.055778217 0.039719358 -0.037740912 0.012707935
0000e0 9a 45 0b 3e 70 42 2a 3e 84 e2 98 3e 4b 67 9f 3e
       0.1360077 0.16626906 0.29860318 0.31133494
0000f0 4c 67 9f 3b 28 0d 97 bd c0 4f 0a bc df 1c cb bd
       0.004864609 -0.07375556 -0.008441865 -0.09917616
000100 d2 77 3d be 6e da 14 be 46 c0 6e be d0 09 85 3d
       -0.18502739 -0.1453645 -0.23315534 0.06496012
000110 c9 dc ac 3c 9f 21 a9 be 9b ea 44 3e 71 ca 43 be
       0.021101372 -0.33033463 0.1923012 -0.19120194
000120 d4 62 29 be ff 07 ef bd 7d 0e 6a bd 48 71 14 3e
       -0.16541606 -0.11671447 -0.057142723 0.14496338
000130 2b c1 61 bd c6 16 0f be 3a 47 40 3e 8b dd 9c bd
       -0.05511586 -0.13973531 0.18777171 -0.076594435
000140 b7 49 bd bd 55 ff 77 be 9d cf fd bd 69 65 14 3e
       -0.092425756 -0.24218495 -0.12393115 0.1449181
000150 a0 3c 0a be 3f a1 86 3e d6 33 bf 3a a1 3f 17 3f
       -0.13499689 0.26294896 0.0014587592 0.59081465
000160 72 65 2d be 05 3e 6a 3d 53 c6 5b be b7 ba 86 3e
       -0.1693323 0.057188053 -0.21462373 0.26314327
000170 d4 30 cf be f4 99 80 bd 1c 96 c2 3d 53 ea 10 3e
       -0.4046694 -0.06279364 0.09501287 0.14151888
000180 31 ca 02 3e a4 15 4e 3d 87 fe 88 bd 9f 0b 94 be
       0.12772442 0.050313607 -0.06689172 -0.28915116
000190 46 1c 14 be b3 53 2a 3e dd e1 1e be 1f 7f c0 3c
       -0.1446391 0.16633491 -0.15515848 0.023498116
0001a0 86 7d 04 be 45 8c 8f be f6 fb ee bd 75 f8 cd bb
       -0.12938508 -0.28036705 -0.116691515 -0.006285722
0001b0 e6 ec a8 be 30 87 7c be 0c 91 95 be 11 1a 53 be
       -0.3299324 -0.24660945 -0.29212224 -0.20615412
0001c0 66 06 a7 be 74 57 9c 3c 9e 52 aa bd f0 79 42 be
       -0.3262207 0.01908467 -0.08316539 -0.18991828
0001d0 fd db 4a bd 15 ea a4 bd 85 80 05 be 7d 09 a5 be
       -0.049526203 -0.0805246 -0.13037308 -0.322338
0001e0 8d 5f 95 3e a8 b8 2d bd a2 58 76 3e 4d 80 d3 bd
       0.29174462 -0.04241243 0.24057248 -0.10327206
0001f0 33 d9 a7 3e f7 b7 bf bb c8 25 7c 3d d0 3d ff bd
       0.32782897 -0.0058507877 0.06155947 -0.12462962
000200 a2 82 17 3d 46 5c 18 3e 10 05 59 be 3b 4e f0 bd
       0.036989816 0.1487895 -0.21193337 -0.11733671
000210 4d b2 b4 be 0d a8 3f 3e b8 06 5a bd 58 b9 03 be
       -0.35292283 0.1871645 -0.053229064 -0.12863672
000220 98 b5 26 be 0c ec 47 be ee 9e 71 3e a7 79 ba bc
       -0.1628021 -0.19523638 0.23595783 -0.022763086
000230 4f 53 81 bd e0 da 0b be 95 3c 6e be c9 27 7c be
       -0.06314718 -0.13657713 -0.23265298 -0.24624552
000240 2d 13 62 be bb 3d 71 bd ac 3f 14 ba f2 be ee 3c
       -0.22077627 -0.05889676 -0.000565524 0.029143784
000250 bb ba 9c bd 3a 44 34 3e f4 aa 49 3e c5 04 77 3e
       -0.076528035 0.17604151 0.1969412 0.24122913
000260 26 27 78 3e 59 7d 4c 3e e7 93 4c 3e 68 a9 10 be
       0.24233684 0.19969691 0.19978295 -0.14127123
000270 c5 29 e0 bd 08 f8 c0 be 98 77 ea 3b 8b 7e 75 be
       -0.10945467 -0.37689233 0.00715537 -0.23974054
000280 79 d6 61 bd 3f 90 8c 3d 30 c9 05 be cc 67 e8 bc
       -0.055136178 0.0686345 -0.13065028 -0.028369807
000290 7e 90 4d be 6f 13 e0 3d b0 09 bb 3a 4e 6b 8b bd
       -0.2007465 0.10941207 0.0014269855 -0.06807576
0002a0 86 e2 24 3e 0c fe 2e bd c9 8c f1 3d 8a c0 03 bd
       0.16102037 -0.042722747 0.11794431 -0.03216604
0002b0 c8 21 28 3c 7c 05 52 3e 03 7c 85 bd 1d ed 0d bd
       0.01026196 0.20509905 -0.06517794 -0.034649957
0002c0 fe 1c f6 3d c9 70 92 bd 9c 5b a2 3d 9e 8f 27 be
       0.120172486 -0.07150418 0.07927629 -0.1636338
0002d0 fc f5 00 be 42 df 3d bd 86 49 61 bd 28 73 98 3e
       -0.12593836 -0.046355493 -0.055001758 0.29775357
0002e0 82 ae 0a 3d 70 0e 96 3d 14 e4 a8 3e 28 17 be 3e
       0.03385783 0.073269725 0.3298651 0.37127042
0002f0 83 20 69 3e e4 93 1a be 3e 0f 18 be 4e fa 64 3e
       0.22766308 -0.15095478 -0.14849564 0.22361109
000300 10 e8 59 3d 81 04 26 3c c1 48 62 3e af 02 82 3e
       0.053199828 0.01013291 0.22098066 0.25392672
000310 99 97 d8 3d d6 44 65 3e 74 7e 2d 3e a1 d0 7c 3e
       0.1057579 0.2238954 0.1694277 0.2468896
000320 41 12 80 bd c3 e3 cc 3d 74 c8 7c be f6 e8 1e be
       -0.06253482 0.100043796 -0.24685842 -0.15518555
000330 6a 54 8d be 43 a1 ea bd c3 49 dc 3c c6 af 50 be
       -0.27603465 -0.114565395 0.026890641 -0.20379552
000340 6f 6a 43 bd 55 9c 54 be 40 c3 8d 3e f0 97 c1 3d
       -0.047708925 -0.20762761 0.27688026 0.09452808
000350 83 0b c3 3d 50 d0 f0 3d 13 99 12 3e 5a 45 c6 bd
       0.0952368 0.117584825 0.14316206 -0.096811965
000360 94 57 b9 3d 0f dc 84 be 19 d1 81 3d 76 10 98 bd
       0.09049907 -0.2594914 0.0633871 -0.07425015
000370 c6 5c dd 3e 53 b4 8e 3e 8b de d5 3e 97 8a 31 be
       0.43234843 0.2787195 0.4177135 -0.17338024
000380 4f 8d 84 3e 16 79 aa bc d0 a4 90 bd af cc b2 3d
       0.2588906 -0.020809691 -0.070626855 0.087304465
000390 f9 eb 16 bb 81 d9 c6 bd 36 fb c8 bc cd b9 5c bd
       -0.0023028834 -0.09709454 -0.02453385 -0.05388813
0003a0 4e e8 c6 bd a5 ab b4 3d 3b 9a b9 3c 3f 81 bc bd
       -0.09712277 0.08821801 0.02265655 -0.09204339
0003b0 a3 7c 1e 3d 7f 41 d0 bd 7f 77 23 3d 53 98 06 3d
       0.03869308 -0.101687424 0.039908882 0.03286011
0003c0 33 3b 0c bd 50 8a b1 3d d6 f5 35 3c 85 40 2c be
       -0.034236144 0.08668959 0.011105975 -0.16821487
0003d0 46 67 ac bc 35 b4 90 bd 55 42 1c be af 6a 0c be
       -0.021045338 -0.07065622 -0.15259679 -0.13712572
0003e0 a8 25 4a 3e ed bb aa bd 7a d1 88 3e 51 c8 20 3e
       0.19740927 -0.08336625 0.26722318 0.15701415
0003f0 f0 e9 67 3d ad 87 75 3e 43 52 2a 3d 31 f4 d3 3d
       0.056619585 0.23977537 0.041582357 0.1034931

arr_3 f4 [10]
000000 fa 4e 4e bd d0 b5 72 bc 26 be c1 bb 31 b9 ba bb
       -0.050368287 -0.014813855 -0.00591256 -0.005698346
000010 79 4b 6c bd c1 a2 ad bb c0 4d 47 bc 66 7c fd bc
       -0.057689164 -0.005298943 -0.012164533 -0.030943107
000020 f8 f2 fb 3c c7 9b f2 bc
       0.030755505 -0.029615296

arr_4 f4 [20, 20, 3]
000000 c5 c3 c8 be 4e 5c fd bc 4d 0e be be 91 40 d6 be
       -0.3921186 -0.030927803 -0.37120286 -0.41846135
000010 96 05 f8 bd 0f 13 fe bd 1a 2c cf 3d 7e 45 a0 bd
       -0.121104404 -0.12405979 0.101158336 -0.078257546
000020 f2 40 34 be 8c 48 8d 3e 9f bd cb 3d 63 8b 8a 3e
       -0.176029 0.2759441 0.09948277 0.2705947
000030 34 dc 3f bd cc 38 cd bd 7e 75 f4 3d 93 7a 1c 3e
       -0.04684086 -0.10020599 0.11936472 0.15281133
000040 55 c9 bd bd 8c cc 98 b9 ff 13 48 3e ab 9f 3f 3e
       -0.09266917 -0.00029144099 0.19538878 0.18713252
000050 c4 f1 78 3d ef e4 eb 3d 77 e7 b4 3e bf 77 7f be
       0.06077744 0.11518275 0.35332844 -0.24948023
000060 1c 78 83 3e 2f de 4f 3e 5b 5e 69 3e e3 81 41 3e
       0.25677574 0.202996 0.227899 0.18897204
000070 2b 9f 38 3e 3c 0f 9c bd f7 33 4d 3d e7 78 69 bd
       0.18029468 -0.07620093 0.050098386 -0.057000067
000080 57 08 25 be db d8 a7 be 7c 27 b1 be d6 2d f0 bd
       -0.16116463 -0.32782635 -0.34600437 -0.117274925
000090 4e a0 74 be 05 0f 37 be f5 e3 f3 be e9 07 0a 3e
       -0.23889276 -0.17876823 -0.47634855 0.1347958
0000a0 0e 56 ec 3c 58 9c cb 3c 3b c6 84 be 18 4b 2d 3b
       0.028849628 0.024854824 -0.25932488 0.0026442464
0000b0 b0 4a 14 3e 18 1c 82 3d f1 52 19 be 2e 11 35 be
       0.14481616 0.06353015 -0.14973046 -0.17682335
0000c0 7c 70 2c bd 0f 1f d3 bc 04 68 f7 bd 52 18 1e 3c
       -0.04209946 -0.025771646 -0.12080386 0.009649353
0000d0 9f 77 cf bd e0 c0 0e be e7 4b 87 3e d6 07 02 3e
       -0.10130238 -0.13940763 0.26425096 0.12698302
0000e0 cf 59 4b be 04 20 57 be 84 d0 00 3d 18 6d d7 bd
       -0.19858478 -0.21008307 0.031448856 -0.10518855
0000f0 67 94 49 3e 9b af e8 bd f4 ab a9 be 20 2b 37 3e
       0.19685517 -0.11361619 -0.33139002 0.17887545
000100 98 bc 88 3d ef e3 1b 3e 1b d4 7a 3d 69 43 8e be
       0.066765964 0.15223669 0.061237436 -0.27785805
000110 e0 07 32 3e 59 9a 3b bd b9 c4 53 3d 9f 7e 1e be
       0.17385817 -0.045801494 0.05170128 -0.1547799
000120 f9 80 5e 3e 21 78 c3 bd b8 15 e7 bc 22 5f 26 3c
       0.21728887 -0.09544397 -0.028208598 0.010154517
000130 cc 93 22 3e fd f5 75 3e c1 27 1f 3d 78 38 4c be
       0.15876693 0.24019618 0.03885627 -0.19943416
000140 79 2b 0c be 19 49 2a be 4c 0d 97 bc 61 92 3d bd
       -0.13688459 -0.16629447 -0.018438958 -0.046282176
000150 44 eb 86 3d 76 7e 25 bd 0e cb 70 be 08 30 29 be
       0.06587842 -0.040403806 -0.23514959 -0.16522229
000160 a9 4d 35 3e c7 ce 4a 3e 94 91 c0 3d 02 d0 3a bd
       0.17705406 0.19805442 0.09402767 -0.045608528
000170 a3 88 1a 3c 29 80 93 be 7b 84 3a bd 1b 1e 9a be
       0.009431991 -0.28808716 -0.0455365 -0.30101094
000180 f7 ac 90 3d 14 f7 b5 bc 11 83 1d 3d 8f 04 2b 3d
       0.070642404 -0.022212543 0.038455073 0.041752394
000190 52 6c e6 bd 6a 0c 8e bd c8 38 88 be c3 1b 8d be
       -0.11251129 -0.069359615 -0.2660582 -0.27560243
0001a0 44 75 8f be 52 a2 39 3e 32 66 4b 3e db 96 23 3e
       -0.28019154 0.18128327 0.19863203 0.15975516
0001b0 2b bc 11 3e 0e ad f8 bd f7 36 4f be 11 d2 9d bc
       0.14231937 -0.121423826 -0.20235811 -0.019265207
0001c0 13 89 bc 3d c9 99 27 be 24 57 37 be 5e 57 80 be
       0.09205832 -0.16367258 -0.17904335 -0.25066656
0001d0 11 f2 10 3e 2c bd 9e 3d 94 37 29 3e f0 ab 5c be
       0.14154841 0.077509254 0.16525108 -0.21549964
0001e0 82 15 1b bd 94 23 8d be d0 a0 9d be c3 43 b4 3d
       -0.03786231 -0.27566206 -0.30786753 0.08801987
0001f0 5f bc bb 3e eb 1a 94 3c fb 32 94 bc bd 6b 88 be
       0.36667153 0.018079242 -0.018090716 -0.26644698
000200 3e 42 f3 bd 38 f7 bd bd a1 ce 39 be 52 4e c0 3a
       -0.11877869 -0.09275669 -0.18145229 0.0014671779
000210 f5 a3 15 3c 8e 2f 91 be 91 60 70 be e5 16 0f be
       0.009133329 -0.28356594 -0.23474337 -0.13973577
000220 f5 d5 db be 00 34 9a be de d5 16 3c ad f2 c3 be
       -0.42936674 -0.30117798 0.009206263 -0.38271084
000230 07 50 bc be 37 1c 8d be 4b 39 d3 be 92 7a 3b be
       -0.36779806 -0.2756059 -0.4125465 -0.18308476
000240 23 39 be bd ac 7e 00 3e 6a 04 2c be d9 cd 22 be
       -0.09288242 0.12548321 -0.16798559 -0.15898837
000250 f6 a8 ea ba 1d 21 4a 3d 21 63 87 3e 29 f2 a2 be
       -0.0017903137 0.049347986 0.26442817 -0.3182538
000260 66 6e 25 3c cb 8b f1 3e 64 13 38 3e 2f ca b9 3e
       0.010097122 0.47176966 0.17976147 0.36287066
000270 3a 27 4b 3e 04 06 c6 3d 94 a1 db bc 9f 8e bc 3e
       0.19839182 0.09669116 -0.026810445 0.3682756
000280 06 42 9c 3d e0 f4 96 3d c7 98 9d bd e6 82 d6 be
       0.076297805 0.07370925 -0.076951556 -0.41896743
000290 8b 1d 5a 3c 6e 01 e6 3c 35 3f 37 3e e1 03 c1 3e
       0.013312708 0.028076854 0.17895205 0.37698272
0002a0 a0 36 5a 3e 81 02 5f 3e 73 e9 1a 3e f7 48 35 be
       0.213099 0.21778299 0.15128116 -0.17703615
0002b0 63 f3 78 3c 87 27 ec be 08 d0 dc bd 62 9b f9 3c
       0.015194747 -0.46123907 -0.10781866 0.0304696
0002c0 9e 72 15 bd 84 c3 a7 bd 04 9f 6b be d4 e9 01 bf
       -0.03648626 -0.081915885 -0.23009878 -0.5074742
0002d0 ca 50 bf bd b6 01 5c be 65 4b 7b bd b5 47 47 3e
       -0.09341581 -0.21485028 -0.0613512 0.19460948
0002e0 4f ce db be 90 99 f6 bd 5e c5 84 3e 09 d1 eb 3d
       -0.42930838 -0.120410085 0.2593183 0.1151448
0002f0 8d db 0c bb 4b 8c 9b be e9 56 97 be 70 29 8f be
       -0.0021493167 -0.30380473 -0.29558495 -0.27961302
000300 2f 41 e6 3d 54 35 1b bd 5d 49 41 3e 2f cb 88 3e
       0.112429015 -0.037892655 0.18875642 0.26717517
000310 4a b9 5b 3e e9 59 87 3e c4 ad 63 3e 11 83 17 3e
       0.21457401 0.26435784 0.22234255 0.14796092
000320 37 3c 98 3e 88 44 05 bd ea 67 e0 bd 0d 5e 85 bd
       0.2973344 -0.03253606 -0.1095732 -0.065120794
000330 5e f6 23 3e e6 7a 88 bd 70 46 85 3e 6e 64 3c be
       0.1601195 -0.06664066 0.26030302 -0.18397686
000340 59 bb 92 3e 80 fa b2 bd ca 96 55 3c fb 14 6c bc
       0.2865856 -0.08739185 0.013036439 -0.014409299
000350 8f f5 3b be 07 7d 2a be d6 01 c9 3d 52 75 53 be
       -0.18355392 -0.16649257 0.09814803 -0.20650223
000360 71 40 58 be 1d a2 27 be c1 6b 0b bd b8 86 b0 bd
       -0.21118332 -0.16370435 -0.03403831 -0.086194456
000370 6a d0 48 be fc 23 87 be 62 9d bd bd 23 76 de bd
       -0.19610754 -0.2639464 -0.09258534 -0.108623765
000380 3e d6 ab 3d 1d 97 81 3d 3d 91 50 be 90 47 51 3e
       0.08390473 0.06327651 -0.20367904 0.20437455
000390 46 f6 b0 be 80 d6 f0 be 78 38 df be 54 ae 99 bb
       -0.34562892 -0.4703865 -0.4359777 -0.004689971
0003a0 ca 45 51 bc 93 45 d3 bd 9b 27 87 3e 73 b3 64 3e
       -0.012772987 -0.103160046 0.26397404 0.2233408
0003b0 d8 e7 55 bb e1 b9 d1 be 4d 6a 55 bd c7 0b c6 3d
       -0.003263941 -0.40962127 -0.05210333 0.09670215
0003c0 b8 b5 1f 3e 39 2c cc bc 16 f4 20 be 48 d8 c8 3d
       0.15596664 -0.02492343 -0.15718111 0.098068774
0003d0 b9 b5 1b be e5 79 d1 bd c6 ef de 3d 0f 50 12 3e
       -0.1520604 -0.10228328 0.10885577 0.14288352
0003e0 00 59 90 3e 1a 40 64 3e 19 bf 0e be e5 9d 78 be
       0.28192902 0.22290078 -0.13940085 -0.24278982
0003f0 29 95 4e be df 2d ea 3d 75 68 6f be 3e df 07 be
       -0.20174088 0.114345305 -0.23379691 -0.13268754

arr_5 f4 [20]
000000 9f db a7 3d cb 68 40 3d 31 21 78 bc 0a 63 9a 3a
       0.08196186 0.04697494 -0.015144632 0.0011778784
000010 7c 97 d1 bd e5 58 94 bd 4b 6f 4d 3d bb 75 04 3d
       -0.102339715 -0.07243518 0.050154965 0.03233884
000020 b4 b0 62 bd c4 ed b5 bd c0 34 82 bb c2 11 00 bd
       -0.0553443 -0.08883241 -0.0039735734 -0.031266935
000030 6b 6a 63 bc e9 c8 89 bd ea 83 9d bd 81 4b b6 bd
       -0.0138803525 -0.06727774 -0.07691176 -0.0890112
000040 54 e9 ee bd f1 f0 97 bc 68 f8 c1 bd 92 15 8f bd
       -0.116655976 -0.018547507 -0.09471208 -0.06986536

arr_6 f4 [1600, 30]
000000 f7 46 08 bd 98 92 75 bc ca c2 ba 3e ec ab 81 3e
       -0.033270802 -0.014988564 0.36476737 0.25326478
000010 b8 76 2b be 0d 89 8f bd 85 a6 82 3e b8 f6 0d 3c
       -0.16744506 -0.07008562 0.2551767 0.008664779
000020 4a 93 dd 3c 39 2e 8d bd 89 16 97 3d 01 80 90 3b
       0.027047772 -0.06893582 0.07377345 0.0044097905
000030 81 b6 0c bd e0 d0 74 be d0 fb 8e 3e 90 55 7a 3c
       -0.034353737 -0.23907804 0.27926493 0.015279189
000040 b1 a4 ca be 7a 31 6e 3e f9 61 8f bd 26 f6 43 bd
       -0.39578775 0.23261061 -0.07001109 -0.047842167
000050 61 98 5d bc 03 1d ab bd 32 e6 09 bc 8d bb 10 be
       -0.0135250995 -0.08355143 -0.008416699 -0.14134045
000060 60 bf 34 bd f4 0e 85 bd 3d 78 78 ba 5c 87 de bd
       -0.044127822 -0.06496993 -0.0009478366 -0.108656615
000070 ca 10 32 3d 26 b8 4d bc cd 51 ae 3c 6e 1b 92 3c
       0.043473043 -0.012556111 0.02127924 0.017835345
000080 fc a9 c9 3e 20 3d 89 3e b1 5f ad bd a0 9c 56 3c
       0.393875 0.26804447 -0.08465517 0.013098866
000090 64 d0 ef 3d 5c 60 19 bd b0 63 64 3e 4f e8 36 bd
       0.11709669 -0.03744541 0.22303653 -0.04465514
0000a0 99 e0 cd bd 84 0b ac 3d 1a b6 76 bd bd 6a 53 be
       -0.10052604 0.08400634 -0.06023226 -0.20646186
0000b0 1f 63 b7 bc cd 47 10 bd 15 70 a5 be 2d d0 6d 3e
       -0.022386132 -0.035224725 -0.32312074 0.23223944
0000c0 b5 8f b6 bd 2d 3b 9e bc 06 e9 71 3d ca a0 99 bc
       -0.08914129 -0.019315327 0.05906012 -0.018753428
0000d0 64 bc 2d bd 91 96 c2 bd b9 92 b9 bb 79 f7 78 3d
       -0.04241599 -0.095013745 -0.0056632427 0.060782883
0000e0 a0 d9 bb b9 88 d7 03 be 5b c8 62 3e 03 62 02 be
       -0.00035829563 -0.12875187 0.22146742 -0.12732701
0000f0 4a fa 8b bd 80 82 d0 bb 4d 38 d9 3e 6a 99 85 3e
       -0.06834848 -0.006363213 0.42425767 0.26093608
000100 ab d8 c5 bd 42 41 b0 bd 7b c4 64 3e 84 cb 51 bc
       -0.09660467 -0.08606197 0.22340576 -0.01280487
000110 6e 82 85 3e d1 1d a8 3c 05 ac ea 3c 69 0f 2d 3e
       0.26076072 0.02052203 0.028646478 0.1690041
000120 97 4b 0b 3d 80 bb 6a be 5b ce 21 3e 3e db 40 3b
       0.034007635 -0.22923088 0.15801375 0.0029427554
000130 db 28 94 be b2 59 96 3e 02 59 af bd c6 81 9e bd
       -0.2893742 0.29365307 -0.08561899 -0.07739596
000140 2e e2 24 be 9a d0 9e bc f0 1e 48 bd c5 53 8d bd
       -0.16101906 -0.019386578 -0.04885763 -0.069007434
000150 4e 7a 12 bd 64 31 c4 3d b5 99 a8 bc 46 e5 c4 bd
       -0.03576117 0.09579733 -0.020581106 -0.09614043
000160 41 df 47 3e 85 af 6a 3d 2b e9 a9 bd 4d 9b a9 bd
       0.19518758 0.057296295 -0.082964264 -0.082815744
000170 80 88 ad 3e 05 6c 88 3e 5e 18 35 be a4 15 8d bc
       0.33893204 0.26644912 -0.17685077 -0.017222233
000180 83 dd 7f 3e 44 34 2c bc 4f 2d 7f 3e 43 c5 37 bd
       0.24986844 -0.010510508 0.24919628 -0.044865858
000190 c3 bf c4 3c 06 d5 33 be 1f 78 5f bc cb ed 68 be
       0.02401722 -0.1756173 -0.013639479 -0.22746961
0001a0 75 03 39 3b 6e fb 13 3d 09 e4 5b be 8a 7c f0 3d
       0.002823082 0.036128454 -0.21473707 0.11742504
0001b0 1d 68 5b 3c 18 ea bb 3c ab 95 4c bd 41 d9 f7 bc
       0.013391522 0.022938773 -0.049947422 -0.030254962
0001c0 fc cf b4 bc 91 e1 ff bc bd 03 ad bd 14 eb 42 bb
       -0.02207183 -0.031235488 -0.08447979 -0.0029742168
0001d0 6a 0e 1d bc 85 af a6 bd ab 32 5c 3e 7e f5 b4 3c
       -0.009585956 -0.081389464 0.21503703 0.022089716
0001e0 89 44 8a bc 0f 57 38 bc 4d fc 7d 3e 08 7b 72 3e
       -0.016878383 -0.011251225 0.24803276 0.23679745
0001f0 bc e7 e0 bd c6 92 9a bd fc 17 3e 3d f6 a2 5d bd
       -0.109817 -0.07547526 0.046409592 -0.05411049
000200 b0 6f 30 3d b1 0f 3c bd 5b 5e 8e bd 03 51 c7 3d
       0.043075264 -0.045913402 -0.069515906 0.09732249
000210 a3 7e ae bd 44 46 5c be 94 1f 3d 3d 3b 24 fa 3c
       -0.08520248 -0.21511179 0.046172693 0.030534854
000220 08 43 52 be a4 53 35 3e af 77 26 bd 2c 7b b2 bc
       -0.20533383 0.17707688 -0.040641483 -0.021787249
000230 c5 23 83 3d 8e 57 ce bc 45 a3 9d 3c df da 9f bd
       0.06403307 -0.025188234 0.019242892 -0.07805418
000240 7a da 89 3c 27 a9 2b be f6 ea 4f bd cb 7e a6 bd
       0.01682781 -0.16763745 -0.050761186 -0.081296526
000250 37 02 19 bd 3e 5d 0c be 47 3e b2 3c 84 de 66 bd
       -0.037355628 -0.13707444 0.021758212 -0.05636455
000260 f5 78 3e 3e 39 b4 a3 3d 09 c5 a7 3d 2e 7f 8a bc
       0.18600829 0.07993359 0.08191878 -0.016906347
000270 3f 8d eb 3d 45 bc a7 ba 4b 1c de 3d 0a 87 a0 bd
       0.1150155 -0.0012797198 0.1084524 -0.07838257
000280 1e d7 04 be a5 9f 80 bd a4 d4 66 3c c9 fe 56 be
       -0.12972686 -0.0628045 0.014088783 -0.2099563
000290 a6 8b b9 3d 77 dd 8d bc 40 d0 03 be 13 ff c5 3d
       0.09059839 -0.017317517 -0.1287241 0.09667792
0002a0 80 89 b8 ba b5 be 75 bd 84 c6 ca 3d 5c 27 9d bd
       -0.0014079064 -0.059996326 0.09901145 -0.07673523
0002b0 18 b7 06 bd 5e 7e 89 3d 5e f0 49 3b d8 79 22 bd
       -0.032889456 0.06713556 0.0030813436 -0.03966698
0002c0 28 34 89 bd 1e 35 b5 bc 3f 77 e2 3d c8 82 ff 3c
       -0.06699401 -0.022120055 0.11057901 0.031190291
0002d0 a2 eb 87 bd bc 2f 1a bd 57 ad a6 3d 0f 88 9b 3d
       -0.0663674 -0.03764318 0.08138531 0.075943105
0002e0 bc d1 d1 3d c6 38 af bd 69 db 86 3e e2 d9 83 bd
       0.10245082 -0.085557505 0.26339272 -0.06438042
0002f0 1d 1c 7d 3e 6e b8 a6 bc b9 b6 d1 3b d5 b4 0e 3e
       0.24717756 -0.020351615 0.006399956 0.1393617
000300 30 97 90 bd da b8 24 be 5d 4f c2 3d 1a 14 cf bc
       -0.07060087 -0.1608614 0.094877936 -0.02527814
000310 56 31 01 be 1a 48 0b 3e 5e e0 9e 3c fa 3f da 3c
       -0.12616476 0.13601723 0.019394096 0.026641835
000320 58 be 68 3d 20 f5 11 bb ac c1 a1 3b ed 64 3f 3e
       0.05682215 -0.002227135 0.0049364176 0.18690844
000330 9a 93 3b 3b 44 86 12 3d a1 3d 9f bd e1 a3 21 3d
       0.0028621913 0.035772577 -0.07775427 0.039462928
000340 ff ca 52 3e 56 37 06 3e a5 49 36 bd 73 0d f6 bb
       0.2058525 0.13107046 -0.044503827 -0.0075089275
000350 eb 62 87 3d 04 96 12 bd d9 7e 74 bb 82 9f dd 3c
       0.06610664 -0.035787597 -0.0037307052 0.027053598
000360 bd 67 9c 3d c6 65 52 3c 8d c2 2e 3e c8 ad bf bd
       0.07636974 0.0128416475 0.17066403 -0.09359318
000370 a4 6c 22 bb b5 58 62 bd 93 a3 af 3a 41 59 47 be
       -0.0024783993 -0.05526038 0.0013400189 -0.19467641
000380 a1 c1 ee bc b3 a5 02 bd 7d f6 fe 3c 47 81 53 3d
       -0.029145064 -0.031896304 0.031123394 0.05163696
000390 56 5b 35 bd 98 50 90 bd 33 25 12 bd 12 d7 9f bd
       -0.044276558 -0.07046622 -0.035680007 -0.07804693
0003a0 71 1b 44 bd d6 6c 00 3c 14 5f 88 bc 48 8a 9a 3c
       -0.047877733 0.0078384485 -0.0166469 0.018864766
0003b0 e4 f9 d3 3b e5 28 c9 3c 42 4d db 3d 96 83 42 3e
       0.0064689983 0.024555633 0.10708095 0.18995509
0003c0 0e 09 04 bd 31 d8 a5 bd e3 73 0b bd 51 e5 05 bd
       -0.032235198 -0.08097876 -0.034046065 -0.032689396
0003d0 49 db d4 bb 01 9d a7 bd 85 26 b2 3d fa 3b 7e 3c
       -0.0064958674 -0.08184243 0.08698753 0.015517229
0003e0 6d b0 de 3d 51 e7 5d bd 6e 46 ad 3b 04 96 af b9
       0.10873494 -0.05417568 0.005287937 -0.0003349037
0003f0 03 a0 9e bb 9c 4f 2f be 36 b1 6d bd 73 3b 41 bd
       -0.004840852 -0.17120212 -0.05803033 -0.047175836

arr_7 f4 [30]
000000 a8 34 05 bd e6 fb f5 bc 0e 2e e7 3d 19 22 80 3d
       -0.03252092 -0.030027341 0.11288081 0.062565036
000010 f4 fd 51 bd 2c 8d 28 bd a2 7c 84 3c fd 31 2d bd
       -0.05126758 -0.041150257 0.01617271 -0.042284
000020 7e 06 06 3d c9 7e 90 bc 5e 3f ee 3d 96 2c 7c bb
       0.032721035 -0.01763858 0.1163318 -0.0038478724
000030 76 7b ee bc 3b d0 de 3b ca 7c 86 bc 6f 9a d0 bc
       -0.029111605 0.0067997253 -0.016416926 -0.025464265
000040 11 e2 cd 3b ff 79 64 3d 60 fa f5 bc 3a 27 d6 bc
       0.0062830527 0.055780407 -0.030026615 -0.026141752
000050 ac 71 3f bd 88 f9 f5 bc a7 fb f5 bc 0c a6 8e bd
       -0.046739265 -0.030026212 -0.030027224 -0.06965265
000060 98 f9 f5 bc 55 87 f1 bc 6e 8d f7 bc 32 8f 5f bd
       -0.030026242 -0.029483477 -0.030218806 -0.05457992
000070 d0 c1 be bc cd 4b 51 3d
       -0.023285776 0.05109768

arr_8 f4 [30, 10]
000000 9f a1 41 be 75 4f b1 be 7e 7a e2 bd 4a f4 5f bd
       -0.1890931 -0.34630933 -0.1105852 -0.05467633
000010 35 5d af 3d a5 f7 af 3c be 82 90 3e f4 7d aa be
       0.085627 0.02148039 0.28224748 -0.3329922
000020 2f 43 45 3e 09 5e 81 be bc 3d 35 3e b3 2f d0 3c
       0.1926391 -0.25267056 0.17699331 0.02541337
000030 81 65 9e 3e 11 79 65 bd 11 91 86 3e c0 4b b5 3e
       0.30936816 -0.05602366 0.26282552 0.35409355
000040 ef 9e 8e be bd 2e 36 3e 06 ad 9c 3e 09 9d 8a be
       -0.27855632 0.17791267 0.30600756 -0.27072933
000050 a7 e7 d6 3e 96 36 bb 3e 62 fe 07 bf 8b 71 1d 3e
       0.41973612 0.36565083 -0.5312253 0.15375344
000060 bc 0b 66 be f0 ca ac be 42 99 38 3e 01 9e 8d be
       -0.22465414 -0.3374858 0.18027213 -0.2765961
000070 31 9f be be 4f 15 cd 3e 4d 43 c6 3e 33 00 bf 3e
       -0.37230828 0.4005532 0.3872322 0.3730484
000080 7d 6f 26 bf b5 35 ad bd 3b 4d 9f be f3 18 22 bf
       -0.6501387 -0.084575094 -0.3111361 -0.6331932
000090 6f f0 d0 3e a4 32 2e bf 85 ba f2 be f0 6d 76 3e
       0.40808436 -0.6804602 -0.47407928 0.24065375
0000a0 12 6c cf be 9f f1 3c bc 5c 1d 28 3f dd e0 98 be
       -0.4051214 -0.011532216 0.656698 -0.29859057
0000b0 0e 18 cf 3c 39 74 26 be 65 a3 1c bf 45 74 43 bd
       0.025280025 -0.16255273 -0.6118682 -0.047718305
0000c0 38 31 34 be 6f 6c d7 bc 36 31 d5 3e 1c e4 2b bd
       -0.175969 -0.026296822 0.41639107 -0.04196559
0000d0 df 53 90 3e 2e fa be 3e 68 fd 20 bd 4c 0e 87 bd
       0.2818899 0.37300247 -0.039304167 -0.06594524
0000e0 b9 41 9e bd dc e8 b3 3e 1c e1 2c 3e ed 37 27 3d
       -0.07727379 0.35138595 0.16882747 0.04082482
0000f0 45 16 a3 3e 8b 13 b4 3e 29 2f 19 3e ba 0e 11 be
       0.31852928 0.3517116 0.14959396 -0.14165774
000100 cc f6 d5 3e 43 7d bd be 13 84 8f be 03 e0 9d be
       0.41789854 -0.3700963 -0.28030452 -0.3083497
000110 3d 6c 1f be 5a 1b 1f bd d4 af 4b 3e 09 fb c8 3e
       -0.15568633 -0.038844444 0.19891292 0.39254025
000120 7d b9 a9 bd cb 34 e3 bd 4e be 49 be 14 69 80 3e
       -0.08287332 -0.11094054 -0.19701502 0.25080168
000130 62 7c be bd d4 39 96 be 20 cc 9d 3e 79 42 ef 3d
       -0.09301068 -0.29340994 0.30819798 0.116826005
000140 9e 03 3c 3c e8 b5 be 3d 79 cd a1 3c 49 36 1b bd
       0.011475472 0.093120396 0.019751297 -0.037893567
000150 22 41 e8 be df 81 15 be da f5 18 bf f0 9f 18 bf
       -0.45362192 -0.14600323 -0.5975014 -0.59619045
000160 32 b6 29 bf c3 72 4d be a4 48 f3 bd 15 b4 be bd
       -0.66293633 -0.2006331 -0.118790895 -0.09311692
000170 20 9f 48 be e1 56 97 3e 8f 6c c5 3d d4 69 df be
       -0.19591951 0.2955847 0.096398465 -0.43635428
000180 85 08 66 3d fb 78 a5 bb 2a 28 a9 be 68 af ce be
       0.05616047 -0.0050498224 -0.33038455 -0.403682
000190 e5 9b 91 3e 86 5b 68 3e 24 6d 78 bd 8a 44 a3 3e
       0.2843925 0.22691163 -0.06065096 0.3188823
0001a0 62 77 92 be b4 cb ad be ba 60 96 3e bf 95 13 be
       -0.28606707 -0.33944476 0.29370672 -0.14412592
0001b0 e5 a9 a3 be e1 cd 0e be 35 af 91 3e 56 84 cb be
       -0.31965557 -0.13945724 0.28453985 -0.39749402
0001c0 a0 9f c1 3e c0 7d 84 be b1 dd 5a 3e 18 6e 3b be
       0.37817097 -0.2587719 0.21373631 -0.18303716
0001d0 06 87 b9 be 82 99 fb 3e a4 58 b7 3d a4 fd b0 be
       -0.36235827 0.49140555 0.08952454 -0.34568512
0001e0 8a 8f 71 bc fd ef 36 3e a3 1a ab bd 90 69 ae 3e
       -0.014743695 0.17864986 -0.0835469 0.34064913
0001f0 53 17 f2 3d 73 74 82 3e 2f 6a 89 be 39 98 e9 bc
       0.11820855 0.2547947 -0.26838824 -0.028514968
000200 2f 65 9b 3d fd b9 3a be fa 09 2d bf 4d 7b 16 bf
       0.075876586 -0.18235011 -0.6759335 -0.5878189
000210 90 eb e7 bd cc 7c a1 3e 33 7b bf 3e d2 33 87 be
       -0.11324227 0.31540525 0.3739868 -0.26406723
000220 31 4c dd 3e 17 43 ec be 2b fe 01 3e e5 1a 00 be
       0.43222192 -0.46144935 0.12694614 -0.1251026
000230 e4 b4 2d 3d 43 6e 39 3e b3 29 1a bf d9 85 1f be
       0.04240884 0.18108468 -0.6021988 -0.15578403
000240 72 b0 f8 3e 4d df 9a 3e e9 b9 65 be 71 ba b3 bd
       0.48572117 0.3024849 -0.224342 -0.08775795
000250 3d 12 42 3d 14 d6 c1 3c cb ce 23 be 38 0e 15 bc
       0.047380675 0.02366165 -0.15996854 -0.009097628
000260 8a c9 8a 3e 87 82 5f 3e 54 a4 a5 be db cc 23 be
       0.27106887 0.21827136 -0.32351935 -0.15996115
000270 09 37 90 ba d1 99 13 be 74 ab ac bc ac 2c b3 3e
       -0.001100273 -0.14414145 -0.021077849 0.3499502
000280 d2 1a 2e bf 19 03 46 bf fc e0 8e 3e d8 82 85 3e
       -0.68009675 -0.77348477 0.27906024 0.26076388
000290 da a1 58 be 35 9d b2 3e 49 79 90 3e b7 ce 51 be
       -0.21155491 0.34885564 0.28217533 -0.20489012
0002a0 f0 d2 99 3e df 9a 79 bf 7c fb e3 3e cc 03 9d 3e
       0.30043745 -0.9750194 0.44527805 0.3066696
0002b0 63 53 a0 3e 3f cf fa be 00 c4 c4 be 64 1a d9 bd
       0.3131362 -0.4898624 -0.38430786 -0.10600737
0002c0 f2 48 21 bf 8c 98 80 3e bf 13 b8 be 77 32 32 be
       -0.6300193 0.25116384 -0.35952565 -0.17402063
0002d0 36 57 64 3e a5 35 64 be 7d fe fa bd 48 24 15 bd
       0.22298893 -0.22286089 -0.12255571 -0.036411554
0002e0 e5 67 c0 3e 06 76 c4 3d d7 bc a8 be 64 a9 23 be
       0.37579265 0.09592824 -0.32956573 -0.15982586
0002f0 12 00 74 bd 47 83 33 3e f7 d2 39 3c 34 8b 96 3e
       -0.05957038 0.17530547 0.011341802 0.2940308
000300 26 36 b8 3e 46 af 1e 3e 63 b4 dc 3d d8 23 e4 3d
       0.35978812 0.15496549 0.107765935 0.11139649
000310 7a a9 89 3e 36 7c 92 3d c2 73 87 be 1f 6b 8e be
       0.26887113 0.071525976 -0.26455504 -0.27816102
000320 39 15 c8 be 43 ed 10 bf 43 53 a1 3e 1c c6 ad be
       -0.39078692 -0.5661203 0.31508836 -0.33940208
000330 b6 f6 9a be 69 00 e7 be ca 69 3e bf 70 7c 2b bf
       -0.3026635 -0.451175 -0.7438017 -0.6698675
000340 82 a3 a8 bc e3 ce d9 3d bf 97 2f 3e 1f a0 52 bd
       -0.02058578 0.10635164 0.1714773 -0.051422235
000350 ff 63 62 be f3 37 85 3d 22 32 c2 be 73 a7 38 bd
       -0.22108458 0.06504812 -0.37928873 -0.045081567
000360 b7 43 07 be 55 81 aa be 20 bc 6e 3d b3 79 7e 3e
       -0.13209425 -0.33301798 0.05828488 0.24851112
000370 1b 47 8b be 39 dc 8a 3d a8 df 4c 3e 0d 22 5c be
       -0.27202687 0.067802854 0.20007193 -0.21497364
000380 e0 39 a0 bc 67 98 3a 3e 8c be 69 3d cf bd ac 3b
       -0.019558847 0.182222 0.057066485 0.0052716504
000390 b2 a2 1a 3e 53 b6 c7 be 30 33 f8 be c9 7e 4f be
       0.15101126 -0.3900629 -0.48476553 -0.20263208
0003a0 c7 d4 9c 3e 69 91 50 be 2e 55 8b 3e a9 07 a2 3e
       0.30631086 -0.2036797 0.27213424 0.3164647
0003b0 78 5a 77 bd d1 65 ab be 12 c8 24 be 11 d1 38 be
       -0.060389012 -0.33476117 -0.16091946 -0.18048503
0003c0 c8 3c ab be 1b 42 81 be 23 f9 19 bd 0d 58 c6 be
       -0.3344481 -0.25245747 -0.03759111 -0.38739052
0003d0 fb 6c 14 be 05 01 c0 be dd 5d b2 3e 10 d0 8d 3e
       -0.14494698 -0.37500778 0.34837237 0.27697802
0003e0 89 be 98 be 0d c2 bf 3d 39 a6 d8 be f6 43 77 3e
       -0.29832867 0.09363184 -0.42314318 0.24147019
0003f0 4a 23 07 bf 30 17 52 3e 85 6d 81 be ca 69 a1 be
       -0.5278822 0.20516658 -0.2527887 -0.31526023

arr_9 f4 [10]
000000 84 af 92 3d 03 3f 97 bd 6f 30 56 be 60 91 9b 3e
       0.07162383 -0.073850654 -0.20916913 0.3038435
000010 9f 69 3d bd 12 0a ef bd c8 27 1d 3e 88 9d f4 3d
       -0.046243306 -0.11671843 0.15347207 0.11944109
000020 cc 34 f0 bd ea 5f b6 bd
       -0.1172882 -0.08905013
